…
15:35'),(11,1,'Using TensorFlow backend.\r\nWARNING: Logging before flag parsing goes to stderr.\r\nW0607 20:19:45.442040 13624 deprecation_wrapper.py:119] From C:\\Program Files\\Python36\\lib\\site-packages\\keras\\backend\\tensorflow_backend.py:4070: The name tf.nn.max_pool is deprecated. Please use tf.nn.max_pool2d instead.\r\n\r\nModel: \"sequential_1\"\r\n_________________________________________________________________\r\nLayer (type)                 Output Shape              Param #   \r\n=================================================================\r\nconv2d_1 (Conv2D)            (None, 26, 26, 32)        320       \r\n_________________________________________________________________\r\nactivation_1 (Activation)    (None, 26, 26, 32)        0         \r\n_________________________________________________________________\r\nconv2d_2 (Conv2D)            (None, 24, 24, 32)        9248      \r\n_________________________________________________________________\r\nactivation_2 (Activation)    (None, 24, 24, 32)        0         \r\n_________________________________________________________________\r\nmax_pooling2d_1 (MaxPooling2 (None, 12, 12, 32)        0         \r\n_________________________________________________________________\r\nconv2d_3 (Conv2D)            (None, 10, 10, 64)        18496     \r\n_________________________________________________________________\r\nactivation_3 (Activation)    (None, 10, 10, 64)        0         \r\n_________________________________________________________________\r\nconv2d_4 (Conv2D)            (None, 8, 8, 64)          36928     \r\n_________________________________________________________________\r\nactivation_4 (Activation)    (None, 8, 8, 64)          0         \r\n_________________________________________________________________\r\nmax_pooling2d_2 (MaxPooling2 (None, 4, 4, 64)          0         \r\n_________________________________________________________________\r\nflatten_1 (Flatten)          (None, 1024)              0         \r\n_________________________________________________________________\r\ndense_1 (Dense)              (None, 512)               524800    \r\n_________________________________________________________________\r\nactivation_5 (Activation)    (None, 512)               0         \r\n_________________________________________________________________\r\ndropout_1 (Dropout)          (None, 512)               0         \r\n_________________________________________________________________\r\ndense_2 (Dense)              (None, 10)                5130      \r\n_________________________________________________________________\r\nactivation_6 (Activation)    (None, 10)                0         \r\n=================================================================\r\nTotal params: 594,922\r\nTrainable params: 594,922\r\nNon-trainable params: 0\r\n_________________________________________________________________\r\nTraceback (most recent call last):\r\n  File \"./uploads/1/train.py\", line 58, in <module>\r\n    height_shift_range=0.08, zoom_range=0.08)\r\n  File \"C:\\Program Fil
…
